…
at scale_factor will change in 1.6.0 to align with other frameworks/libraries, and use scale_factor directly, instead of relying on the computed output size. If you wish to keep the old behavior, please set recompute_scale_factor=True. See the documentation of nn.Upsample for details. warnings.warn(\"The default behavior for interpolate/upsample with float scale_factor will change \" Out[39]: Sequential ====================================================================== Layer (type) Output Shape Param # Trainable ====================================================================== Conv2d [64, 112, 112] 9,408 False ______________________________________________________________________ BatchNorm2d [64, 112, 112] 128 True ______________________________________________________________________ ReLU [64, 112, 112] 0 False ______________________________________________________________________ MaxPool2d [64, 56, 56] 0 False ______________________________________________________________________ Conv2d [64, 56, 56] 36,864 False ______________________________________________________________________ BatchNorm2d [64, 56, 56] 128 True ______________________________________________________________________ ReLU [64, 56, 56] 0 False ______________________________________________________________________ Conv2d [64, 56, 56] 36,864 False ______________________________________________________________________ BatchNorm2d [64, 56, 56] 128 True ______________________________________________________________________ Conv2d [64, 56, 56] 36,864 False ______________________________________________________________________ BatchNorm2d [64, 56, 56] 128 True ______________________________________________________________________ ReLU [64, 56, 56] 0 False ______________________________________________________________________ Conv2d [64, 56, 56] 36,864 False ______________________________________________________________________ BatchNorm2d [64, 56, 56] 128 True ______________________________________________________________________ Conv2d [64, 56, 56] 36,864 False ______________________________________________________________________ BatchNorm2d [64, 56, 56] 128 True ______________________________________________________________________ ReLU [64, 56, 56] 0 False ______________________________________________________________________ Conv2d [64, 56, 56] 36,864 False ______________________________________________________________________ BatchNorm2d [64, 56, 56] 128 True ______________________________________________________________________ Conv2d [128, 28, 28] 73,728 False ______________________________________________________________________ BatchNorm2d [128, 28, 28] 256 True ______________________________________________________________________ ReLU [128, 28, 28] 0 False ______________________________________________________________________ Conv2d [128, 28, 28] 147,456 False ______________________________________________________________________ BatchNorm2d [128, 28, 28] 256 True ______________________________________________________________________ Conv2d [128, 28, 28] 8,192 False ______________________________________________________________________ BatchNorm2d [128, 28, 28] 256 True ______________________________________________________________________ Conv2d [128, 28, 28] 147,456 False ______________________________________________________________________ BatchNorm2d [128, 28, 28] 256 True ______________________________________________________________________ ReLU [128, 28, 28] 0 False ______________________________________________________________________ Conv2d [128, 28, 28] 147,456 False ______________________________________________________________________ BatchNorm2d [128, 28, 28] 256 True ______________________________________________________________________ Conv2d [128, 28, 28] 147,456 False ______________________________________________________________________ BatchNorm2d [128, 28, 28] 256 True ______________________________________________________________________ ReLU [128, 28, 28] 0 False ______________________________________________________________________ Conv2d [128, 28, 28] 147,456 False ______________________________________________________________________ BatchNorm2d [128, 28, 28] 256 True ______________________________________________________________________ Conv2d [128, 28, 28] 147,456 False ______________________________________________________________________ BatchNorm2d [128, 28, 28] 256 True ______________________________________________________________________ ReLU [128, 28, 28] 0 False ______________________________________________________________________ Conv2d [128, 28, 28] 147,456 False ______________________________________________________________________ BatchNorm2d [128, 28, 28] 256 True ______________________________________________________________________ Conv2d [256, 14, 14] 294,912 False ______________________________________________________________________ BatchNorm2d [256, 14, 14] 512 True ______________________________________________________________________ ReLU [256, 14, 14] 0 False ______________________________________________________________________ Conv2d [256, 14, 14] 589,824 False ______________________________________________________________________ BatchNorm2d [256, 14, 14] 512 True ______________________________________________________________________ Conv2d [256, 14, 14] 32,768 False ______________________________________________________________________ BatchNorm2d [256, 14, 14] 512 True ______________________________________________________________________ Conv2d [256, 14, 14] 589,824 False ______________________________________________________________________ BatchNorm2d [256, 14, 14] 512 True ______________________________________________________________________ ReLU [256, 14, 14] 0 False ______________________________________________________________________ Conv2d [256, 14, 14] 589,824 False ______________________________________________________________________ BatchNorm2d [256, 14, 14] 512 True ______________________________________________________________________ Conv2d [256, 14, 14] 589,824 False ______________________________________________________________________ BatchNorm2d [256, 14, 14] 512 True ______________________________________________________________________ ReLU [256, 14, 14] 0 False ______________________________________________________________________ Conv2d [256, 14, 14] 589,824 False ______________________________________________________________________ BatchNorm2d [256, 14, 14] 512 True ______________________________________________________________________ Conv2d [256, 14, 14] 589,824 False ______________________________________________________________________ BatchNorm2d [256, 14, 14] 512 True ______________________________________________________________________ ReLU [256, 14, 14] 0 False ______________________________________________________________________ Conv2d [256, 14, 14] 589,824 False ______________________________________________________________________ BatchNorm2d [256, 14, 14] 512 True ______________________________________________________________________ Conv2d [256, 14, 14] 589,824 False ______________________________________________________________________ BatchNorm2d [256, 14, 14] 512 True ______________________________________________________________________ ReLU [256, 14, 14] 0 False ______________________________________________________________________ Conv2d [256, 14, 14] 589,824 False ______________________________________________________________________ BatchNorm2d [256, 14, 14] 512 True ______________________________________________________________________ Conv2d [256, 14, 14] 589,824 False ______________________________________________________________________ BatchNorm2d [256, 14, 14] 512 True ______________________________________________________________________ ReLU [256, 14, 14] 0 False ______________________________________________________________________ Conv2d [256, 14, 14] 589,824 False ______________________________________________________________________ BatchNorm2d [256, 14, 14] 512 True ______________________________________________________________________ Conv2d [512, 7, 7] 1,179,648 False ______________________________________________________________________ BatchNorm2d [512, 7, 7] 1,024 True ______________________________________________________________________ ReLU [512, 7, 7] 0 False ______________________________________________________________________ Conv2d [512, 7, 7] 2,359,296 False ______________________________________________________________________ BatchNorm2d [512, 7, 7] 1,024 True ______________________________________________________________________ Conv2d [512, 7, 7] 131,072 False ______________________________________________________________________ BatchNorm2d [512, 7, 7] 1,024 True ______________________________________________________________________ Conv2d [512, 7, 7] 2,359,296 False ______________________________________________________________________ BatchNorm2d [512, 7, 7] 1,024 True ______________________________________________________________________ ReLU [512, 7, 7] 0 False ______________________________________________________________________ Conv2d [512, 7, 7] 2,359,296 False ______________________________________________________________________ BatchNorm2d [512, 7, 7] 1,024 True ______________________________________________________________________ Conv2d [512, 7, 7] 2,359,296 False ______________________________________________________________________ BatchNorm2d [512, 7, 7] 1,024 True ______________________________________________________________________ ReLU [512, 7, 7] 0 False ______________________________________________________________________ Conv2d [512, 7, 7] 2,359,296 False ______________________________________________________________________ BatchNorm2d [512, 7, 7] 1,024 True ______________________________________________________________________ AdaptiveAvgPool2d [512, 1, 1] 0 False ______________________________________________________________________ AdaptiveMaxPool2d [512, 1, 1] 0 False ______________________________________________________________________ Flatten [1024] 0 False ______________________________________________________________________ BatchNorm1d [1024] 2,048 True ______________________________________________________________________ Dropout [1024] 0 False ______________________________________________________________________ Linear [512] 524,800 True _______
…
